…
s.Dense(units, bias_initializer = initializer_bias, kernel_initializer = initializer_weights, activation = activation)(x) return keras.Model(inputs, outputs) model = make_model(input_shape=image_size + (3,), num_classes=num_classes) model.summary() >>> Model: \"functional_1\" >>> _________________________________________________________________ >>> Layer (type) Output Shape Param # >>> ================================================================= >>> input_1 (InputLayer) [(None, 224, 224, 3)] 0 >>> _________________________________________________________________ >>> rescaling (Rescaling) (None, 224, 224, 3) 0 >>> _________________________________________________________________ >>> conv2d (Conv2D) (None, 75, 75, 32) 896 >>> _________________________________________________________________ >>> activation (Activation) (None, 75, 75, 32) 0 >>> _________________________________________________________________ >>> max_pooling2d (MaxPooling2D) (None, 37, 37, 32) 0 >>> _________________________________________________________________ >>> conv2d_1 (Conv2D) (None, 13, 13, 32) 9248 >>> _________________________________________________________________ >>> activation_1 (Activation) (None, 13, 13, 32) 0 >>> _________________________________________________________________ >>> global_average_pooling2d (Gl (None, 32) 0 >>> _________________________________________________________________ >>> dense (Dense) (None, 1) 33 >>> ================================================================= >>> Total params: 10,177 >>> Trainable params: 10,177 >>> Non-trainable params: 0 >>> _________________________________________________________________ Funci\u00f3n de entrenamiento EPOCHS = 5 #Par\u00e1metro general en el Pipeline de entrenamiento model.compile( optimizer=keras.optimizers.Adam(1e-3), loss=\"binary_crossentropy
…
